src/models/org-tflite/MediaPipe-FaceDetector_w8a8.tflite (tflite, 267512 bytes, 69 tensors)

model/dynamic_conv2d/DynamicConv2D;model/tf.quantization.fake_quant_with_min_max_vars_per_channel/FakeQuantWithMinMaxVarsPerChannel i1 [24, 5, 5, 3]
000000 19 ec e6 1b ee f3 e0 db dd 0c 02 02 34 12 0a 1a
       25 -20 -26 27 -18 -13 -32 -37 -35 12 2 2 52 18 10 26
000010 f0 f3 33 17 18 ed 02 02 fc 16 14 2d 2e 19 00 e2
       -16 -13 51 23 24 -19 2 2 -4 22 20 45 46 25 0 -30
000020 ea 23 10 14 af e0 ea a1 da e4 c9 fe f6 13 fa fd
       -22 35 16 20 -81 -32 -22 -95 -38 -28 -55 -2 -10 19 -6 -3
000030 29 26 21 8d d0 d3 80 c3 d0 eb 07 0a 08 f5 f6 2e
       41 38 33 -115 -48 -45 -128 -61 -48 -21 7 10 8 -11 -10 46
000040 26 1b 87 c8 cc f0 0d 1a 3f 1a 0e fe 04 f8 fa fc
       38 27 -121 -56 -52 -16 13 26 63 26 14 -2 4 -8 -6 -4
000050 f5 e3 dc e2 0a 01 fc 03 08 fd ff 0b 08 19 21 06
       -11 -29 -36 -30 10 1 -4 3 8 -3 -1 11 8 25 33 6
000060 52 7f 59 d1 e0 fa 02 07 0e f9 fe fb e8 e3 eb ae
       82 127 89 -47 -32 -6 2 7 14 -7 -2 -5 -24 -29 -21 -82
000070 a8 c6 0a 0b 14 fc f7 f1 02 08 09 10 0e 12 10 08
       -88 -58 10 11 20 -4 -9 -15 2 8 9 16 14 18 16 8
000080 0f 11 0a ff 04 07 03 fb 02 fb fc 02 f6 f6 03 f9
       15 17 10 -1 4 7 3 -5 2 -5 -4 2 -10 -10 3 -7
000090 fa 01 f6 fd 03 fc ed f3 0a fb 02 0b 08 15 12 11
       -6 1 -10 -3 3 -4 -19 -13 10 -5 2 11 8 21 18 17
0000a0 1c 16 04 01 ff fc fa 0b f6 f7 f8 05 03 e2 1e f6
       28 22 4 1 -1 -4 -6 11 -10 -9 -8 5 3 -30 30 -10
0000b0 c6 31 e3 a0 03 04 14 01 0c 14 08 0e f2 18 db a5
       -58 49 -29 -96 3 4 20 1 12 20 8 14 -14 24 -37 -91
0000c0 4b d3 80 02 f3 fc f9 04 04 fb 0b fc 06 fc e6 27
       75 -45 -128 2 -13 -4 -7 4 4 -5 11 -4 6 -4 -26 39
0000d0 e3 bf 03 ee f3 0b 0b 08 fa 07 ff f6 fd f5 09 ff
       -29 -65 3 -18 -13 11 11 8 -6 7 -1 -10 -3 -11 9 -1
0000e0 fb 00 00 fb fe ff f8 f1 f1 ed f4 f9 ed f8 01 f7
       -5 0 0 -5 -2 -1 -8 -15 -15 -19 -12 -7 -19 -8 1 -9
0000f0 fd 03 f9 f1 ff 05 d0 d7 ef ee f5 f4 e0 ed ea 00
       -3 3 -7 -15 -1 5 -48 -41 -17 -18 -11 -12 -32 -19 -22 0

model/.model/detector/backbone/2/convs/0/Conv/depthwise i1 [1, 3, 3, 24]
000000 53 f4 4e da 2d f3 f6 e0 d5 0e fd 0d 02 d9 50 f4
       83 -12 78 -38 45 -13 -10 -32 -43 14 -3 13 2 -39 80 -12
000010 fe fb 02 0d 36 19 01 0e 7f f9 e2 7f e9 f8 7f 80
       -2 -5 2 13 54 25 1 14 127 -7 -30 127 -23 -8 127 -128
000020 dc 7f 14 cc fd b5 7f 0d e9 e9 0c 1b 7f 80 80 09
       -36 127 20 -52 -3 -75 127 13 -23 -23 12 27 127 -128 -128 9
000030 08 ef e7 ef 80 14 1b 08 f4 07 10 0f fe 41 e3 35
       8 -17 -25 -17 -128 20 27 8 -12 7 16 15 -2 65 -29 53
000040 fb f0 ec 1e 20 02 08 cd 47 d9 7f c7 19 00 17 0b
       -5 -16 -20 30 32 2 8 -51 71 -39 127 -57 25 0 23 11
000050 2f fd 23 07 19 8d 1a a4 ed 09 02 e4 0e 0c f3 06
       47 -3 35 7 25 -115 26 -92 -19 9 2 -28 14 12 -13 6
000060 6d 7f 30 b3 c5 80 7a e6 7f f4 80 80 80 80 fe 7f
       109 127 48 -77 -59 -128 122 -26 127 -12 -128 -128 -128 -128 -2 127
000070 7f 7f 55 80 1b ea 1d fb dc c6 fb ff 9a 1b 49 06
       127 127 85 -128 27 -22 29 -5 -36 -58 -5 -1 -102 27 73 6
000080 c2 ea e4 12 09 0e 9b 49 f7 ce 80 1e 06 06 fe 80
       -62 -22 -28 18 9 14 -101 73 -9 -50 -128 30 6 6 -2 -128
000090 67 ec 9d 10 35 e0 da f5 f0 f4 04 0f 07 28 da eb
       103 -20 -99 16 53 -32 -38 -11 -16 -12 4 15 7 40 -38 -21
0000a0 fd 04 09 00 0f ff ff 0f 19 dd ba 07 25 0b 04 07
       -3 4 9 0 15 -1 -1 15 25 -35 -70 7 37 11 4 7
0000b0 fd 03 e6 34 13 06 06 2f f6 ea 0e c4 07 03 00 01
       -3 3 -26 52 19 6 6 47 -10 -22 14 -60 7 3 0 1
0000c0 92 f0 fe 02 15 09 b2 09 f1 ee 04 0e 03 2f d9 07
       -110 -16 -2 2 21 9 -78 9 -15 -18 4 14 3 47 -39 7
0000d0 fd f4 1d 0e 02 00 04 fe
       -3 -12 29 14 2 0 4 -2

model/dynamic_conv2d_1/DynamicConv2D;model/tf.quantization.fake_quant_with_min_max_vars_per_channel_2/FakeQuantWithMinMaxVarsPerChannel i1 [24, 1, 1, 24]
000000 3e 05 38 fe ef ea 32 f9 7f 02 ea f0 09 1b 1b dc
       62 5 56 -2 -17 -22 50 -7 127 2 -22 -16 9 27 27 -36
000010 02 ab ee dd 51 fc e9 fa fa 7f 0f f9 f8 fc ff f6
       2 -85 -18 -35 81 -4 -23 -6 -6 127 15 -7 -8 -4 -1 -10
000020 f2 fb 0c fe 2f 01 00 f7 02 f9 0c e1 de 43 02 ff
       -14 -5 12 -2 47 1 0 -9 2 -7 12 -31 -34 67 2 -1
000030 d0 1b d6 f3 ff ea 05 ff 56 47 b6 ae f8 5e e1 80
       -48 27 -42 -13 -1 -22 5 -1 86 71 -74 -82 -8 94 -31 -128
000040 46 a1 39 3d 08 0e e8 25 f8 dd 2f 1c fd e7 f8 e9
       70 -95 57 61 8 14 -24 37 -8 -35 47 28 -3 -25 -8 -23
000050 e7 e8 0b 02 05 e7 fd da fc e9 0a fb fe 05 7f 12
       -25 -24 11 2 5 -25 -3 -38 -4 -23 10 -5 -2 5 127 18
000060 20 09 f3 fd af 07 7f 01 2d 0e f4 08 fe 11 0f e5
       32 9 -13 -3 -81 7 127 1 45 14 -12 8 -2 17 15 -27
000070 f2 0e 0f 1e 16 10 00 f8 cf fe ca d2 c3 5f cb 65
       -14 14 15 30 22 16 0 -8 -49 -2 -54 -46 -61 95 -53 101
000080 1b ec fa 39 b5 eb ea 13 16 3a 80 0c 44 0e cd d1
       27 -20 -6 57 -75 -21 -22 19 22 58 -128 12 68 14 -51 -47
000090 d8 0e eb 01 ff df f1 f0 6f f8 fa ee ff 1b 07 f7
       -40 14 -21 1 -1 -33 -15 -16 111 -8 -6 -18 -1 27 7 -9
0000a0 fa f2 f2 80 d5 06 06 10 ed 13 ff 18 34 e5 1a e5
       -6 -14 -14 -128 -43 6 6 16 -19 19 -1 24 52 -27 26 -27
0000b0 da e8 02 0b 3e f2 24 0a 80 d6 11 f2 25 e7 0b 04
       -38 -24 2 11 62 -14 36 10 -128 -42 17 -14 37 -25 11 4
0000c0 39 eb 26 e8 ab ec da f2 08 b5 33 5c 7f 20 22 25
       57 -21 38 -24 -85 -20 -38 -14 8 -75 51 92 127 32 34 37
0000d0 a4 c4 c9 86 2a a2 a6 1d 0f fb 7f f3 fc fd ef fb
       -92 -60 -55 -122 42 -94 -90 29 15 -5 127 -13 -4 -3 -17 -5
0000e0 fa db 07 d5 06 fd 13 f6 0c 0b e9 c1 08 fa 13 e4
       -6 -37 7 -43 6 -3 19 -10 12 11 -23 -63 8 -6 19 -28
0000f0 31 01 a8 0f 1f e8 f9 fe 63 3e 12 ef 09 55 e9 f1
       49 1 -88 15 31 -24 -7 -2 99 62 18 -17 9 85 -23 -15

model/.model/detector/backbone/3/convs/0/Conv/depthwise i1 [1, 3, 3, 24]
000000 32 02 f4 04 df 17 23 e7 1c ea 05 fd 0b c2 19 f2
       50 2 -12 4 -33 23 35 -25 28 -22 5 -3 11 -62 25 -14
000010 18 1a b1 ed fa fe 10 f8 40 fc d0 04 99 25 7f 80
       24 26 -79 -19 -6 -2 16 -8 64 -4 -48 4 -103 37 127 -128
000020 4c f5 0d f8 48 f7 09 80 6f 7f 9f 2b f6 fe d6 06
       76 -11 13 -8 72 -9 9 -128 111 127 -97 43 -10 -2 -42 6
000030 1f 07 47 fa f5 0a 43 c7 67 f6 f4 04 15 ad 04 dd
       31 7 71 -6 -11 10 67 -57 103 -10 -12 4 21 -83 4 -35
000040 35 34 b4 00 ff 0b c0 0c 46 fc 01 fc d4 40 f6 e9
       53 52 -76 0 -1 11 -64 12 70 -4 1 -4 -44 64 -10 -23
000050 4d 18 23 13 04 17 ec ea 02 2a e5 0d 0b f9 07 4c
       77 24 35 19 4 23 -20 -22 2 42 -27 13 11 -7 7 76
000060 68 7f 80 80 80 80 c2 90 e8 62 80 7f 7f 7f bc 54
       104 127 -128 -128 -128 -128 -62 -112 -24 98 -128 127 127 127 -68 84
000070 80 bc 1b 7f 01 80 3f 80 42 43 5d fe a0 00 fc ca
       -128 -68 27 127 1 -128 63 -128 66 67 93 -2 -96 0 -4 -54
000080 80 f8 f1 20 12 d9 a0 d7 13 e4 30 34 08 f2 cf 17
       -128 -8 -15 32 18 -39 -96 -41 19 -28 48 52 8 -14 -49 23
000090 1e 08 ee f4 2a 1c e5 0d 19 3e 1d 0b 08 0a 02 de
       30 8 -18 -12 42 28 -27 13 25 62 29 11 8 10 2 -34
0000a0 f6 f2 fe 04 11 fd f4 1b 7f 20 1a f6 be 28 96 00
       -10 -14 -2 4 17 -3 -12 27 127 32 26 -10 -66 40 -106 0
0000b0 f7 7f b6 b8 e5 21 80 cc c4 9f 61 32 7f 0e 7f 35
       -9 127 -74 -72 -27 33 -128 -52 -60 -97 97 50 127 14 127 53
0000c0 1d 1b 24 ff b1 13 d4 dd 97 16 db 18 08 d6 d1 0e
       29 27 36 -1 -79 19 -44 -35 -105 22 -37 24 8 -42 -47 14
0000d0 ee ce 7f 20 12 03 2e 08
       -18 -50 127 32 18 3 46 8

model/dynamic_conv2d_2/DynamicConv2D;model/tf.quantization.fake_quant_with_min_max_vars_per_channel_4/FakeQuantWithMinMaxVarsPerChannel i1 [24, 1, 1, 24]
000000 ae 0e 07 fd c3 2e fe 1a c1 fe 14 e9 e7 36 23 2e
       -82 14 7 -3 -61 46 -2 26 -63 -2 20 -23 -25 54 35 46
000010 d7 2c a2 e2 fc 47 08 7f ff 80 fe 4d 4d 2e 04 30
       -41 44 -94 -30 -4 71 8 127 -1 -128 -2 77 77 46 4 48
000020 6a d0 f9 f5 f7 13 f8 ea 0a 16 15 10 d2 d3 ff ca
       106 -48 -7 -11 -9 19 -8 -22 10 22 21 16 -46 -45 -1 -54
000030 ca f8 0e dd 17 d3 39 09 fb 3e eb 05 12 54 d4 07
       -54 -8 14 -35 23 -45 57 9 -5 62 -21 5 18 84 -44 7
000040 24 7f f7 6f ed fe 26 fe 09 aa 38 41 1e 7f e5 f6
       36 127 -9 111 -19 -2 38 -2 9 -86 56 65 30 127 -27 -10
000050 e2 72 24 b5 d7 70 fe f1 fa e5 05 f2 d2 12 46 eb
       -30 114 36 -75 -41 112 -2 -15 -6 -27 5 -14 -46 18 70 -21
000060 2a cf 32 0c d0 51 51 f0 db dd 4b d6 31 45 35 db
       42 -49 50 12 -48 81 81 -16 -37 -35 75 -42 49 69 53 -37
000070 c4 11 03 a9 80 7a 30 01 f0 23 cd 49 20 01 e2 36
       -60 17 3 -87 -128 122 48 1 -16 35 -51 73 32 1 -30 54
000080 0e 4e 14 0f e5 7f 1f f0 26 04 cf e1 2c e3 11 b1
       14 78 20 15 -27 127 31 -16 38 4 -49 -31 44 -29 17 -79
000090 f5 82 ce 0f 25 fa 33 0f 09 f5 5d 37 80 fc 21 e6
       -11 -126 -50 15 37 -6 51 15 9 -11 93 55 -128 -4 33 -26
0000a0 04 35 fa c9 b0 14 fa 11 ec 11 80 f7 ad f8 f6 58
       4 53 -6 -55 -80 20 -6 17 -20 17 -128 -9 -83 -8 -10 88
0000b0 3d dd 2d 3d dc 96 f1 24 be ef f1 f8 31 ed ee d6
       61 -35 45 61 -36 -106 -15 36 -66 -17 -15 -8 49 -19 -18 -42
0000c0 c4 15 dc 07 23 fc 09 f2 fe 22 80 f8 29 cf 24 02
       -60 21 -36 7 35 -4 9 -14 -2 34 -128 -8 41 -49 36 2
0000d0 22 e5 0d 07 07 fa be 16 0e 62 18 9e 80 01 d1 00
       34 -27 13 7 7 -6 -66 22 14 98 24 -98 -128 1 -47 0
0000e0 9a 1b 12 6b d0 ec 09 e9 42 e4 0f 01 7c 10 0b 25
       -102 27 18 107 -48 -20 9 -23 66 -28 15 1 124 16 11 37
0000f0 ca fb ea 06 ef 0d fb f7 06 fa 46 02 06 fc 12 07
       -54 -5 -22 6 -17 13 -5 -9 6 -6 70 2 6 -4 18 7

model/.model/detector/backbone/4/convs/0/Conv/depthwise i1 [1, 3, 3, 24]
000000 f9 e6 d9 fd ab f5 0e 0d 14 13 d2 08 03 d1 02 fb
       -7 -26 -39 -3 -85 -11 14 13 20 19 -46 8 3 -47 2 -5
000010 f0 e1 f9 d5 fb 2f fd f3 ef 0a 80 67 80 d8 0b 0b
       -16 -31 -7 -43 -5 47 -3 -13 -17 10 -128 103 -128 -40 11 11
000020 1e b5 83 01 ef 49 fb 0f f0 64 cb db f9 39 de 4e
       30 -75 -125 1 -17 73 -5 15 -16 100 -53 -37 -7 57 -34 78
000030 0e e6 f3 4c b8 d4 04 e6 00 b7 61 05 f3 bb f4 01
       14 -26 -13 76 -72 -44 4 -26 0 -73 97 5 -13 -69 -12 1
000040 03 2e 2d 1d 03 08 3e 18 21 df 8c bc 80 24 ef f8
       3 46 45 29 3 8 62 24 33 -33 -116 -68 -128 36 -17 -8
000050 23 42 a5 01 13 ab f5 36 f6 9c ce c6 da 1d 15 7f
       35 66 -91 1 19 -85 -11 54 -10 -100 -50 -58 -38 29 21 127
000060 7f 80 22 7f 1d 80 80 7f 7f 84 7f 04 80 c3 80 7f
       127 -128 34 127 29 -128 -128 127 127 -124 127 4 -128 -61 -128 127
000070 7f 0c 80 80 80 7f 23 39 3a 07 a3 f6 b9 d5 07 ee
       127 12 -128 -128 -128 127 35 57 58 7 -93 -10 -71 -43 7 -18
000080 05 ca 7d fe 0f 82 f5 01 f7 7f 21 0e fb 30 41 21
       5 -54 125 -2 15 -126 -11 1 -9 127 33 14 -5 48 65 33
000090 ff f9 ae e3 85 3f 07 f8 0a 76 8e db 2f 07 ff 07
       -1 -7 -82 -29 -123 63 7 -8 10 118 -114 -37 47 7 -1 7
0000a0 ff d2 17 fa e1 f9 39 4c 2b f7 ad 1b f3 eb f0 13
       -1 -46 23 -6 -31 -7 57 76 43 -9 -83 27 -13 -21 -16 19
0000b0 29 7f e8 80 45 80 f1 f6 1b 91 2d d5 fa ef 7f a6
       41 127 -24 -128 69 -128 -15 -10 27 -111 45 -43 -6 -17 127 -90
0000c0 3a 08 95 27 9f ee f5 f6 20 14 e5 ee 08 9a fb 00
       58 8 -107 39 -97 -18 -11 -10 32 20 -27 -18 8 -102 -5 0
0000d0 06 22 34 ce ff f8 23 0a
       6 34 52 -50 -1 -8 35 10

model/dynamic_conv2d_3/DynamicConv2D;model/tf.quantization.fake_quant_with_min_max_vars_per_channel_6/FakeQuantWithMinMaxVarsPerChannel i1 [24, 1, 1, 24]
000000 d7 8c 16 e5 f8 f5 b6 80 b7 17 01 0e df 1b d9 f7
       -41 -116 22 -27 -8 -11 -74 -128 -73 23 1 14 -33 27 -39 -9
000010 37 e5 2a 8b 34 07 e4 f8 f0 49 10 0a 11 f8 11 fd
       55 -27 42 -117 52 7 -28 -8 -16 73 16 10 17 -8 17 -3
000020 fb 03 e7 ef 01 04 fc fa f2 80 dd 01 0c ff fc 04
       -5 3 -25 -17 1 4 -4 -6 -14 -128 -35 1 12 -1 -4 4
000030 32 0b 2c 61 4c 96 8b dc 56 cc 6e b2 7f 2a d4 16
       50 11 44 97 76 -106 -117 -36 86 -52 110 -78 127 42 -44 22
000040 d5 6d 1a ff 31 fe 4a e0 1b 2e 02 c7 01 7f 17 45
       -43 109 26 -1 49 -2 74 -32 27 46 2 -57 1 127 23 69
000050 fe dd 08 06 cd 08 14 d1 bb 0a 1f 32 1f 01 17 ed
       -2 -35 8 6 -51 8 20 -47 -69 10 31 50 31 1 23 -19
000060 d2 44 38 e2 40 f0 ac 86 d7 d1 fb 17 ca 32 4e 81
       -46 68 56 -30 64 -16 -84 -122 -41 -47 -5 23 -54 50 78 -127
000070 40 7f 2b db 1f 2c fc ec e4 ec 19 80 0f 37 ea bf
       64 127 43 -37 31 44 -4 -20 -28 -20 25 -128 15 55 -22 -65
000080 f1 f3 27 0e e2 f3 c6 13 00 29 44 e5 1f 2c dd 83
       -15 -13 39 14 -30 -13 -58 19 0 41 68 -27 31 44 -35 -125
000090 15 23 1c 16 f5 35 34 b1 f8 1a 1e e0 0b 1f 7f d9
       21 35 28 22 -11 53 52 -79 -8 26 30 -32 11 31 127 -39
0000a0 ec 01 fe 08 41 dd db dd 16 fa fd 0a ec fa e9 c1
       -20 1 -2 8 65 -35 -37 -35 22 -6 -3 10 -20 -6 -23 -63
0000b0 e1 7f f4 f3 fc 5a fd f6 8f 0c 36 ca 21 24 10 f4
       -31 127 -12 -13 -4 90 -3 -10 -113 12 54 -54 33 36 16 -12
0000c0 0a 22 cb e9 48 26 53 05 80 e1 00 eb d2 13 d8 13
       10 34 -53 -23 72 38 83 5 -128 -31 0 -21 -46 19 -40 19
0000d0 fa 05 0c 64 c6 0a db ec 09 7f 5d fb 46 ac 20 f8
       -6 5 12 100 -58 10 -37 -20 9 127 93 -5 70 -84 32 -8
0000e0 fb b6 31 d7 05 34 52 12 cd ee 0f ed d2 d2 af c5
       -5 -74 49 -41 5 52 82 18 -51 -18 15 -19 -46 -46 -81 -59
0000f0 fb 0a f6 4d 3f 2d 80 d0 92 c1 17 4c 12 4b 0d 2a
       -5 10 -10 77 63 45 -128 -48 -110 -63 23 76 18 75 13 42

model/.model/detector/backbone/5/convs/0/Conv/depthwise i1 [1, 3, 3, 24]
000000 cf 05 fe 0a 15 12 c7 0a 23 06 fe 59 f1 05 1a 0b
       -49 5 -2 10 21 18 -57 10 35 6 -2 89 -15 5 26 11
000010 5c e5 6a fb ea fb f6 17 1b e2 1c 07 ee 2e a7 c2
       92 -27 106 -5 -22 -5 -10 23 27 -30 28 7 -18 46 -89 -62
000020 24 ed 20 ba fd fd f4 15 23 c7 1a 1a db 7f d7 e4
       36 -19 32 -70 -3 -3 -12 21 35 -57 26 26 -37 127 -41 -28
000030 3e ec 20 ff c0 e8 f7 c2 f4 11 1c ad 02 16 03 03
       62 -20 32 -1 -64 -24 -9 -62 -12 17 28 -83 2 22 3 3
000040 f9 ee 7f 20 f2 0b fd f4 80 d6 14 1e e5 46 c9 7f
       -7 -18 127 32 -14 11 -3 -12 -128 -42 20 30 -27 70 -55 127
000050 d4 f9 0c 44 e1 34 32 18 4c 07 52 f0 e1 8d ed 2c
       -44 -7 12 68 -31 52 50 24 76 7 82 -16 -31 -115 -19 44
000060 bd 80 58 80 41 7f 27 6a 80 80 7f 87 80 7a 7f 7f
       -67 -128 88 -128 65 127 39 106 -128 -128 127 -121 -128 122 127 127
000070 7f 80 ae 80 80 72 7f 7f 3e ed 29 c1 d0 b2 04 f9
       127 -128 -82 -128 -128 114 127 127 62 -19 41 -63 -48 -78 4 -7
000080 3e 15 22 db fe 32 13 03 03 fe 1c 0e e1 fd f5 fa
       62 21 34 -37 -2 50 19 3 3 -2 28 14 -31 -3 -11 -6
000090 04 10 0a df 25 1b 1f 17 2e f1 09 7f cf 1e 0e 18
       4 16 10 -33 37 27 31 23 46 -15 9 127 -49 30 14 24
0000a0 27 0c 6c 0d fd d6 f1 f8 0e df 7f e5 80 fc 7f 4d
       39 12 108 13 -3 -42 -15 -8 14 -33 127 -27 -128 -4 127 77
0000b0 2e 05 0e b7 fe 7f 59 1e c2 2a 02 05 f2 c9 e0 ed
       46 5 14 -73 -2 127 89 30 -62 42 2 5 -14 -55 -32 -19
0000c0 fe f4 31 f4 ad e8 2a 48 59 10 11 0d 0a 4b 05 ff
       -2 -12 49 -12 -83 -24 42 72 89 16 17 13 10 75 5 -1
0000d0 ed 19 2f 08 ee f1 fb 03
       -19 25 47 8 -18 -15 -5 3

model/dynamic_conv2d_4/DynamicConv2D;model/tf.quantization.fake_quant_with_min_max_vars_per_channel_8/FakeQuantWithMinMaxVarsPerChannel i1 [24, 1, 1, 24]
000000 7f 1a ed ff e1 9f f9 ec 30 1a 0e 14 1e d6 21 06
       127 26 -19 -1 -31 -97 -7 -20 48 26 14 20 30 -42 33 6
000010 ff 18 04 de 14 1d 38 e4 07 46 e8 08 ec f5 e8 d3
       -1 24 4 -34 20 29 56 -28 7 70 -24 8 -20 -11 -24 -45
000020 fb 13 eb 09 11 0a f2 fd 18 2a 7f 19 f9 da bf f8
       -5 19 -21 9 17 10 -14 -3 24 42 127 25 -7 -38 -65 -8
000030 0d e0 bf dd aa 33 c3 be d7 f1 80 f3 9e 24 03 e6
       13 -32 -65 -35 -86 51 -61 -66 -41 -15 -128 -13 -98 36 3 -26
000040 f2 65 ab d2 08 f4 ca fc 4c d9 e0 41 e5 bf 2d 33
       -14 101 -85 -46 8 -12 -54 -4 76 -39 -32 65 -27 -65 45 51
000050 65 3d ae 1b f4 be 3b 87 35 46 d9 f6 32 7f 58 e9
       101 61 -82 27 -12 -66 59 -121 53 70 -39 -10 50 127 88 -23
000060 c5 80 fa 38 40 26 2d ff cd e3 a2 f2 dc 26 8f c1
       -59 -128 -6 56 64 38 45 -1 -51 -29 -94 -14 -36 38 -113 -63
000070 51 14 ac ff 11 9a a8 c8 ef ca 40 70 df f2 80 0b
       81 20 -84 -1 17 -102 -88 -56 -17 -54 64 112 -33 -14 -128 11
000080 21 2c 2a f7 e1 03 04 2a e7 cf ee 48 fb ee c6 51
       33 44 42 -9 -31 3 4 42 -25 -49 -18 72 -5 -18 -58 81
000090 2a e7 da 22 e9 c4 99 5a cc 5f 4b df 3b db 2e 93
       42 -25 -38 34 -23 -60 -103 90 -52 95 75 -33 59 -37 46 -109
0000a0 3c d1 bb 56 c4 55 7f c8 f7 ce d3 28 80 e1 04 99
       60 -47 -69 86 -60 85 127 -56 -9 -50 -45 40 -128 -31 4 -103
0000b0 b7 ee d8 03 18 44 f6 fc 9c b4 95 45 1a 51 13 0a
       -73 -18 -40 3 24 68 -10 -4 -100 -76 -107 69 26 81 19 10
0000c0 6e fe 22 d2 92 80 21 24 3c a8 2d 13 c4 61 f6 25
       110 -2 34 -46 -110 -128 33 36 60 -88 45 19 -60 97 -10 37
0000d0 c7 ba ca 10 35 ec 1a 3b 7f e8 21 3e f1 de 11 0d
       -57 -70 -54 16 53 -20 26 59 127 -24 33 62 -15 -34 17 13
0000e0 cb 77 4f 06 de 3a 78 ff 2a 22 c6 1e f5 09 c1 f4
       -53 119 79 6 -34 58 120 -1 42 34 -58 30 -11 9 -63 -12
0000f0 e8 1c 80 ff 42 21 21 ed ff f0 8e e5 2d e5 0d 1b
       -24 28 -128 -1 66 33 33 -19 -1 -16 -114 -27 45 -27 13 27

model/.model/detector/backbone/6/convs/0/Conv/depthwise i1 [1, 3, 3, 24]
000000 54 01 fc d6 02 3e e7 d7 2c 3f d2 15 03 1b 07 5c
       84 1 -4 -42 2 62 -25 -41 44 63 -46 21 3 27 7 92
000010 3b f0 26 3b 1c d4 0a ea 21 d3 ef 91 ac 67 0e 82
       59 -16 38 59 28 -44 10 -22 33 -45 -17 -111 -84 103 14 -126
000020 15 7f 80 29 4a 1b 5a 3c 80 ac 7f e7 04 f2 d0 47
       21 127 -128 41 74 27 90 60 -128 -84 127 -25 4 -14 -48 71
000030 7f 1e 5b f1 a6 63 32 16 38 04 f3 fe ea ff 0e 2f
       127 30 91 -15 -90 99 50 22 56 4 -13 -2 -22 -1 14 47
000040 be 00 0e de 08 26 1b e1 56 b1 e4 7f f5 3d e0 80
       -66 0 14 -34 8 38 27 -31 86 -79 -28 127 -11 61 -32 -128
000050 7f ff 07 1f ea 15 f9 61 34 0a e0 54 38 37 e5 e8
       127 -1 7 31 -22 21 -7 97 52 10 -32 84 56 55 -27 -24
000060 d6 ac 80 18 0b 35 17 73 29 61 58 7f 7f 80 80 7f
       -42 -84 -128 24 11 53 23 115 41 97 88 127 127 -128 -128 127
000070 eb 93 7e 51 7f aa 80 27 72 f1 65 19 cb 7f 7f 2b
       -21 -109 126 81 127 -86 -128 39 114 -15 101 25 -53 127 127 43
000080 2d 02 fc f4 99 02 fd 28 bf 7f 19 da 1a f1 16 80
       45 2 -4 -12 -103 2 -3 40 -65 127 25 -38 26 -15 22 -128
000090 3e d1 bd 0a f8 25 1f 62 f5 ef fa 08 0c 0d b7 30
       62 -47 -67 10 -8 37 31 98 -11 -17 -6 8 12 13 -73 48
0000a0 07 01 25 2c f5 9d dc db 45 80 9d 46 7f 32 1d c7
       7 1 37 44 -11 -99 -36 -37 69 -128 -99 70 127 50 29 -57
0000b0 27 a8 22 00 f5 f8 d8 20 b6 26 7e 7f 08 80 1b a5
       39 -88 34 0 -11 -8 -40 32 -74 38 126 127 8 -128 27 -91
0000c0 eb e8 df 23 39 60 3c 15 2b e7 ff 02 b1 e8 09 0f
       -21 -24 -33 35 57 96 60 21 43 -25 -1 2 -79 -24 9 15
0000d0 eb 64 34 4b 1a e1 f6 cf
       -21 100 52 75 26 -31 -10 -49

model/dynamic_conv2d_5/DynamicConv2D;model/tf.quantization.fake_quant_with_min_max_vars_per_channel_10/FakeQuantWithMinMaxVarsPerChannel i1 [24, 1, 1, 24]
000000 e5 48 65 f1 fe 01 ca ff 01 f7 c9 fb 85 0d 1d 23
       -27 72 101 -15 -2 1 -54 -1 1 -9 -55 -5 -123 13 29 35
000010 0b 80 d9 00 0a e9 e6 04 fe c0 86 01 17 e1 59 31
       11 -128 -39 0 10 -23 -26 4 -2 -64 -122 1 23 -31 89 49
000020 4c 7f 07 f1 22 0d f7 cd 00 fb ba af f4 d8 d0 1c
       76 127 7 -15 34 13 -9 -51 0 -5 -70 -81 -12 -40 -48 28
000030 aa 3e d4 17 d9 ea c8 30 2c 06 f2 a8 f8 e3 d5 7f
       -86 62 -44 23 -39 -22 -56 48 44 6 -14 -88 -8 -29 -43 127
000040 ec cb 3b ff 49 10 45 fc 07 1f 0f cf dd 17 28 22
       -20 -53 59 -1 73 16 69 -4 7 31 15 -49 -35 23 40 34
000050 12 15 06 f8 f6 f7 ea d4 cc 04 fa 16 80 eb f4 11
       18 21 6 -8 -10 -9 -22 -44 -52 4 -6 22 -128 -21 -12 17
000060 3b 70 07 80 1e 59 d1 ed f9 ab e1 13 ee 0e c5 1d
       59 112 7 -128 30 89 -47 -19 -7 -85 -31 19 -18 14 -59 29
000070 e1 e3 d2 76 b1 2b 1e fb d9 59 59 49 17 be ee f7
       -31 -29 -46 118 -79 43 30 -5 -39 89 89 73 23 -66 -18 -9
000080 57 e6 80 0c f9 c9 9e ff b2 26 21 ad ec 20 e7 a5
       87 -26 -128 12 -7 -55 -98 -1 -78 38 33 -83 -20 32 -25 -91
000090 54 3e 09 17 fb 25 83 fa ee cb b9 17 24 1a 8b 74
       84 62 9 23 -5 37 -125 -6 -18 -53 -71 23 36 26 -117 116
0000a0 3e f3 ae f2 80 28 23 e6 0b 7f 1b e5 b3 45 e8 38
       62 -13 -82 -14 -128 40 35 -26 11 127 27 -27 -77 69 -24 56
0000b0 04 34 f4 02 01 0f f3 40 fe 19 02 13 04 e7 f5 e4
       4 52 -12 2 1 15 -13 64 -2 25 2 19 4 -25 -11 -28
0000c0 39 68 1e ac c1 ab 4e 80 ea e5 b5 e1 13 e9 e0 80
       57 104 30 -84 -63 -85 78 -128 -22 -27 -75 -31 19 -23 -32 -128
0000d0 de 10 10 14 03 1c 1a 46 c7 7b 63 b2 75 d4 3b cc
       -34 16 16 20 3 28 26 70 -57 123 99 -78 117 -44 59 -52
0000e0 c3 c3 78 0e e1 17 ea df ef 18 00 e1 2b d7 7f e4
       -61 -61 120 14 -31 23 -22 -33 -17 24 0 -31 43 -41 127 -28
0000f0 44 47 f5 32 e2 24 d7 4d 07 14 b3 cb 30 4f 72 67
       68 71 -11 50 -30 36 -41 77 7 20 -77 -53 48 79 114 103

model/.model/detector/backbone/7/convs/0/Conv/depthwise i1 [1, 3, 3, 24]
000000 10 d9 e1 e1 4c f6 20 12 71 06 e7 08 2d 9c 04 54
       16 -39 -31 -31 76 -10 32 18 113 6 -25 8 45 -100 4 84
000010 01 36 23 bf fe e4 00 20 df e4 29 fa 31 f3 1c da
       1 54 35 -65 -2 -28 0 32 -33 -28 41 -6 49 -13 28 -38
000020 f4 fc 55 01 23 66 47 09 e9 9e 7f a6 21 4a 80 37
       -12 -4 85 1 35 102 71 9 -23 -98 127 -90 33 74 -128 55
000030 ec fc 19 e6 1d f5 3e fc 90 ea 35 f8 12 f5 27 3b
       -20 -4 25 -26 29 -11 62 -4 -112 -22 53 -8 18 -11 39 59
000040 48 d0 2c b3 59 7f 94 0a ae f1 d5 f2 5b c6 01 3a
       72 -48 44 -77 89 127 -108 10 -82 -15 -43 -14 91 -58 1 58
000050 57 f1 fe 5c 13 fb fb fc 6e 04 00 9f f6 e0 f5 00
       87 -15 -2 92 19 -5 -5 -4 110 4 0 -97 -10 -32 -11 0
000060 80 80 7f 80 7f ba 55 7f 80 80 7f 80 42 21 7f 80
       -128 -128 127 -128 127 -70 85 127 -128 -128 127 -128 66 33 127 -128
000070 35 80 19 80 e4 d1 bd 7f 16 e6 55 03 37 80 2c 1d
       53 -128 25 -128 -28 -47 -67 127 22 -26 85 3 55 -128 44 29
000080 c8 e0 e1 df 40 7f f7 32 71 88 30 e3 7f e4 ca 0a
       -56 -32 -31 -33 64 127 -9 50 113 -120 48 -29 127 -28 -54 10
000090 bb 13 e1 f0 1f ec 9e e7 43 f6 09 29 fe f3 fb f4
       -69 19 -31 -16 31 -20 -98 -25 67 -10 9 41 -2 -13 -5 -12
0000a0 95 23 f6 02 4d e4 12 f3 ee bf 10 b9 fa ec 80 ee
       -107 35 -10 2 77 -28 18 -13 -18 -65 16 -71 -6 -20 -128 -18
0000b0 f8 f9 1e f4 07 f1 13 ac 80 b9 0b 19 2f 1b 14 e2
       -8 -7 30 -12 7 -15 19 -84 -128 -71 11 25 47 27 20 -30
0000c0 f6 cd 47 00 f9 16 c0 00 dc f5 ed e9 7f 39 01 f6
       -10 -51 71 0 -7 22 -64 0 -36 -11 -19 -23 127 57 1 -10
0000d0 ba d5 11 fb 25 fa 49 f5
       -70 -43 17 -5 37 -6 73 -11

model/dynamic_conv2d_6/DynamicConv2D;model/tf.quantization.fake_quant_with_min_max_vars_per_channel_12/FakeQuantWithMinMaxVarsPerChannel i1 [24, 1, 1, 24]
000000 7f 25 cd 05 de 07 00 f4 4d 1e 05 8c 13 c2 e1 46
       127 37 -51 5 -34 7 0 -12 77 30 5 -116 19 -62 -31 70
000010 a2 12 db 1e 68 d8 36 cd 14 38 04 02 f1 18 1f 7f
       -94 18 -37 30 104 -40 54 -51 20 56 4 2 -15 24 31 127
000020 e8 e0 f5 36 09 f8 0f aa d1 13 ec f5 ea f0 d6 eb
       -24 -32 -11 54 9 -8 15 -86 -47 19 -20 -11 -22 -16 -42 -21
000030 d0 32 fb f1 13 18 3e dd fd 80 ff 1e c2 eb 04 ec
       -48 50 -5 -15 19 24 62 -35 -3 -128 -1 30 -62 -21 4 -20
000040 e0 e4 16 e1 02 04 ea fc 19 0d 02 7f ff fe fa fa
       -32 -28 22 -31 2 4 -22 -4 25 13 2 127 -1 -2 -6 -6
000050 91 0a 07 5f cc c4 9f fc f2 36 0d 05 12 37 fb 43
       -111 10 7 95 -52 -60 -97 -4 -14 54 13 5 18 55 -5 67
000060 0f 14 e3 15 d8 0a ae 80 f9 11 38 f0 4b fc 07 44
       15 20 -29 21 -40 10 -82 -128 -7 17 56 -16 75 -4 7 68
000070 2c 27 17 38 f5 63 30 24 f5 f0 d9 30 ed 7f e6 05
       44 39 23 56 -11 99 48 36 -11 -16 -39 48 -19 127 -26 5
000080 2e 00 2c f2 08 b4 08 05 e4 16 03 fb ec 0e f7 38
       46 0 44 -14 8 -76 8 5 -28 22 3 -5 -20 14 -9 56
000090 be d8 9a 21 1a b0 e0 2d 77 e4 b7 58 f5 01 46 03
       -66 -40 -102 33 26 -80 -32 45 119 -28 -73 88 -11 1 70 3
0000a0 cd 5c df fc 50 3a 05 80 d8 c7 18 0f 01 10 da 80
       -51 92 -33 -4 80 58 5 -128 -40 -57 24 15 1 16 -38 -128
0000b0 e3 0f 23 3f 06 d1 fc 02 03 e0 07 47 11 f5 2b 17
       -29 15 35 63 6 -47 -4 2 3 -32 7 71 17 -11 43 23
0000c0 c9 4a f1 92 16 07 f0 14 4c 27 f1 10 e4 1a 80 19
       -55 74 -15 -110 22 7 -16 20 76 39 -15 16 -28 26 -128 25
0000d0 b3 7d cd ca 13 f2 41 04 10 21 fe f0 ea 17 7f 18
       -77 125 -51 -54 19 -14 65 4 16 33 -2 -16 -22 23 127 24
0000e0 02 5d f4 2d ed 08 fd da dd 06 03 2c f8 3c cc ed
       2 93 -12 45 -19 8 -3 -38 -35 6 3 44 -8 60 -52 -19
0000f0 cf 35 33 25 a9 03 e5 c2 df 36 86 3d fb 07 38 ea
       -49 53 51 37 -87 3 -27 -62 -33 54 -122 61 -5 7 56 -22

model/.model/detector/backbone/8/convs/0/Conv/depthwise i1 [1, 3, 3, 24]
000000 3a 06 42 09 19 c8 e6 fd ef c0 20 1a 67 e7 36 f0
       58 6 66 9 25 -56 -26 -3 -17 -64 32 26 103 -25 54 -16
000010 f9 26 73 cf 25 0f c1 1e 73 6d 54 ea 46 80 1d e6
       -7 38 115 -49 37 15 -63 30 115 109 84 -22 70 -128 29 -26
000020 dd d8 f1 18 05 15 ba ee c1 7f 7f 14 eb 21 9e 5f
       -35 -40 -15 24 5 21 -70 -18 -63 127 127 20 -21 33 -98 95
000030 0e 0f 2e 09 f2 a7 36 1e ee e0 fa ff f1 cf 80 49
       14 15 46 9 -14 -89 54 30 -18 -32 -6 -1 -15 -49 -128 73
000040 91 38 0e 3a 09 3f 06 7f 7f 0b 7f 45 03 05 0e ee
       -111 56 14 58 9 63 6 127 127 11 127 69 3 5 14 -18
000050 d8 ee e6 7f 7f 03 46 04 4c ed 24 bd 71 01 69 d9
       -40 -18 -26 127 127 3 70 4 76 -19 36 -67 113 1 105 -39
000060 76 7f a1 7f 1f cb 99 0d 62 7f 7f 41 bd 80 50 80
       118 127 -95 127 31 -53 -103 13 98 127 127 65 -67 -128 80 -128
000070 0f 55 bd c2 7f 7f 2a f4 7f 13 33 c6 7f b0 c6 80
       15 85 -67 -62 127 127 42 -12 127 19 51 -58 127 -80 -58 -128
000080 bf ed 04 c5 bf c5 b4 4c 86 15 20 7f 0e 3c 5f 40
       -65 -19 4 -59 -65 -59 -76 76 -122 21 32 127 14 60 95 64
000090 09 0a 49 30 f4 37 00 eb 80 06 cb f3 23 0d df 20
       9 10 73 48 -12 55 0 -21 -128 6 -53 -13 35 13 -33 32
0000a0 42 ba 12 d4 53 18 38 e0 03 1e 33 e4 ea 4d 80 1f
       66 -70 18 -44 83 24 56 -32 3 30 51 -28 -22 77 -128 31
0000b0 a4 05 d5 fb a2 02 5d c1 7f cd f6 d6 11 3a 7f c3
       -92 5 -43 -5 -94 2 93 -63 127 -51 -10 -42 17 58 127 -61
0000c0 dc be 2b bd 4b fe d9 f5 e4 db ff ff 24 eb e6 f5
       -36 -66 43 -67 75 -2 -39 -11 -28 -37 -1 -1 36 -21 -26 -11
0000d0 ff bf bf 4e 26 fb 38 e7
       -1 -65 -65 78 38 -5 56 -25

model/dynamic_conv2d_7/DynamicConv2D;model/tf.quantization.fake_quant_with_min_max_vars_per_channel_14/FakeQuantWithMinMaxVarsPerChannel i1 [24, 1, 1, 24]
000000 2a 0c f2 cd 0b 02 22 08 34 11 04 c9 0c f5 f0 0f
       42 12 -14 -51 11 2 34 8 52 17 4 -55 12 -11 -16 15
000010 7f a6 7e 9b 04 60 0f 10 23 80 fb f5 09 fe 08 24
       127 -90 126 -101 4 96 15 16 35 -128 -5 -11 9 -2 8 36
000020 0b 15 b0 d0 0d 21 36 2b 05 13 21 1d dc 31 ee 01
       11 21 -80 -48 13 33 54 43 5 19 33 29 -36 49 -18 1
000030 17 f8 7f 03 f1 02 0c ed 1a d8 07 0e dc 4c 02 0b
       23 -8 127 3 -15 2 12 -19 26 -40 7 14 -36 76 2 11
000040 e8 26 03 ea d8 1c 13 13 29 00 e4 a8 d2 16 19 ef
       -24 38 3 -22 -40 28 19 19 41 0 -28 -88 -46 22 25 -17
000050 39 03 16 ff f7 12 20 80 e6 16 10 0b ea 11 fc d9
       57 3 22 -1 -9 18 32 -128 -26 22 16 11 -22 17 -4 -39
000060 16 0c f5 26 31 dc 1b c2 03 e2 ff c4 ee 13 80 cf
       22 12 -11 38 49 -36 27 -62 3 -30 -1 -60 -18 19 -128 -49
000070 93 11 e7 00 ec 2f f4 f9 7f c8 b0 fe 01 ce 69 3d
       -109 17 -25 0 -20 47 -12 -7 127 -56 -80 -2 1 -50 105 61
000080 e8 06 be ad b4 ee ae d4 16 f3 db e4 14 ee 00 26
       -24 6 -66 -83 -76 -18 -82 -44 22 -13 -37 -28 20 -18 0 38
000090 d9 fb f7 fa 13 f6 7f f8 1a 04 0a 04 d4 02 fb f8
       -39 -5 -9 -6 19 -10 127 -8 26 4 10 4 -44 2 -5 -8
0000a0 26 f4 3b 17 e1 ca 14 12 26 06 06 20 18 01 03 7f
       38 -12 59 23 -31 -54 20 18 38 6 6 32 24 1 3 127
0000b0 fb fd f2 f8 f8 1b f7 18 fc f2 f7 e5 05 02 f4 12
       -5 -3 -14 -8 -8 27 -9 24 -4 -14 -9 -27 5 2 -12 18
0000c0 d7 f6 da 23 28 fc eb f3 a9 ff eb 36 7f f3 f8 ee
       -41 -10 -38 35 40 -4 -21 -13 -87 -1 -21 54 127 -13 -8 -18
0000d0 cf f3 0e 05 d6 d7 ce 1a 0f 02 10 fc 31 0e 01 0b
       -49 -13 14 5 -42 -41 -50 26 15 2 16 -4 49 14 1 11
0000e0 eb 80 ed f8 07 dc f6 f6 d9 bb 28 f8 fb 23 2f 07
       -21 -128 -19 -8 7 -36 -10 -10 -39 -69 40 -8 -5 35 47 7
0000f0 ec 37 ea d6 1e 5b d2 16 1a b3 80 b4 e3 fe 2e fb
       -20 55 -22 -42 30 91 -46 22 26 -77 -128 -76 -29 -2 46 -5

model/.model/detector/backbone/9/convs/0/Conv/depthwise i1 [1, 3, 3, 24]
000000 a9 22 80 0f ec fe 44 0b 38 97 d6 27 3e b5 1b 80
       -87 34 -128 15 -20 -2 68 11 56 -105 -42 39 62 -75 27 -128
000010 c1 f5 a6 f0 22 2e a8 b5 96 35 b0 36 e2 2c 66 31
       -63 -11 -90 -16 34 46 -88 -75 -106 53 -80 54 -30 44 102 49
000020 bd 80 bd 4c 25 f1 3c a7 8a fd 9f cc 53 5e a9 98
       -67 -128 -67 76 37 -15 60 -89 -118 -3 -97 -52 83 94 -87 -104
000030 d2 33 3a 41 c8 35 2d 2e 80 c4 ba 58 31 d6 30 0d
       -46 51 58 65 -56 53 45 46 -128 -60 -70 88 49 -42 48 13
000040 f0 65 dc de 31 5e d4 d4 b1 43 a9 1a d8 2f 5a 3b
       -16 101 -36 -34 49 94 -44 -44 -79 67 -87 26 -40 47 90 59
000050 1b ca bd 5e 1b ad 53 ba 80 60 9b bf 49 62 c9 9c
       27 -54 -67 94 27 -83 83 -70 -128 96 -101 -65 73 98 -55 -100
000060 80 7f 33 7f 80 7f 7f 7f dc a0 80 7f 7f 89 7f cd
       -128 127 51 127 -128 127 127 127 -36 -96 -128 127 127 -119 127 -51
000070 8e 5c 80 80 7f 7f 80 80 b4 46 7c 64 9a 66 7f 51
       -114 92 -128 -128 127 127 -128 -128 -76 70 124 100 -102 102 127 81
000080 c9 9d 90 4d 5e c9 5b 32 f6 7f ca b1 3f 59 a6 c3
       -55 -99 -112 77 94 -55 91 50 -10 127 -54 -79 63 89 -90 -61
000090 f0 40 36 28 b4 35 1b 3d 34 de ef 48 3e 80 38 2a
       -16 64 54 40 -76 53 27 61 52 -34 -17 72 62 -128 56 42
0000a0 96 4e c0 d2 5b 42 f1 d0 bb 50 5d 53 a4 6b 58 66
       -106 78 -64 -46 91 66 -15 -48 -69 80 93 83 -92 107 88 102
0000b0 26 c9 e9 54 53 8c 5b 2e aa 5c b5 a4 4d 3b a2 c9
       38 -55 -23 84 83 -116 91 46 -86 92 -75 -92 77 59 -94 -55
0000c0 d9 1b 24 31 cf 3f 53 34 fd c1 e3 03 2c d5 3a 35
       -39 27 36 49 -49 63 83 52 -3 -63 -29 3 44 -43 58 53
0000d0 e0 1f e5 c4 1c 18 c0 f1
       -32 31 -27 -60 28 24 -64 -15

model/dynamic_conv2d_8/DynamicConv2D;model/tf.quantization.fake_quant_with_min_max_vars_per_channel_16/FakeQuantWithMinMaxVarsPerChannel i1 [24, 1, 1, 24]
000000 e6 16 d4 35 11 ef 0b 80 e2 da e9 01 1f 38 be b7
       -26 22 -44 53 17 -17 11 -128 -30 -38 -23 1 31 56 -66 -73
000010 06 1d 46 bb f8 18 28 28 e3 7f d4 f9 af 06 c3 d7
       6 29 70 -69 -8 24 40 40 -29 127 -44 -7 -81 6 -61 -41
000020 eb 9f 2a fa fd f0 ed f1 2c 29 1a 0f 3b 7b 25 3b
       -21 -97 42 -6 -3 -16 -19 -15 44 41 26 15 59 123 37 59
000030 3a 3c e5 ee 02 14 f8 ee 08 03 cf 34 f7 f4 dd f5
       58 60 -27 -18 2 20 -8 -18 8 3 -49 52 -9 -12 -35 -11
000040 18 fc 7f c6 0a 06 51 28 8e e7 e2 7f 27 3f 11 11
       24 -4 127 -58 10 6 81 40 -114 -25 -30 127 39 63 17 17
000050 a0 82 fd 16 1d 18 de f4 0b 17 e0 21 2d cc 23 e0
       -96 -126 -3 22 29 24 -34 -12 11 23 -32 33 45 -52 35 -32
000060 3e 7f 07 3b 97 d5 06 13 1a 01 f6 5f 27 1a 09 3c
       62 127 7 59 -105 -43 6 19 26 1 -10 95 39 26 9 60
000070 3f 1c 1d e4 7b 7f d9 3b 1e ef fb e4 fc 7f 1a f3
       63 28 29 -28 123 127 -39 59 30 -17 -5 -28 -4 127 26 -13
000080 f8 28 14 fe e2 f5 27 c7 04 17 11 03 02 eb ee bf
       -8 40 20 -2 -30 -11 39 -57 4 23 17 3 2 -21 -18 -65
000090 cf b7 36 fd 0f 25 7f eb ec 0b d7 18 4b ea 32 1c
       -49 -73 54 -3 15 37 127 -21 -20 11 -41 24 75 -22 50 28
0000a0 17 12 c4 c7 e4 bf 26 10 bb e3 0d 5a a5 d2 07 7e
       23 18 -60 -57 -28 -65 38 16 -69 -29 13 90 -91 -46 7 126
0000b0 45 24 36 ef ce 4f b6 eb 1f dc 7f 1e f4 0a e4 d6
       69 36 54 -17 -50 79 -74 -21 31 -36 127 30 -12 10 -28 -42
0000c0 80 f1 4c f5 95 d0 66 e5 f8 fa 98 a5 39 24 50 d4
       -128 -15 76 -11 -107 -48 102 -27 -8 -6 -104 -91 57 36 80 -44
0000d0 50 06 ef d0 36 e0 bc 09 0d 2b fd ca e3 80 fb ae
       80 6 -17 -48 54 -32 -68 9 13 43 -3 -54 -29 -128 -5 -82
0000e0 00 df 01 ff 26 14 2e d6 e8 14 d3 ed f2 15 e0 1d
       0 -33 1 -1 38 20 46 -42 -24 20 -45 -19 -14 21 -32 29
0000f0 05 23 d5 45 ae d7 fe 20 54 f6 80 ef 5e f6 d4 bc
       5 35 -43 69 -82 -41 -2 32 84 -10 -128 -17 94 -10 -44 -68

model/.model/detector/backbone/10/convs/0/Conv/depthwise i1 [1, 3, 3, 24]
000000 ac 4e e4 dc 25 da 53 d3 b1 06 fb fd 52 2a 99 29
       -84 78 -28 -36 37 -38 83 -45 -79 6 -5 -3 82 42 -103 41
000010 dc fe b0 11 2e f4 06 02 2e eb 05 bb 50 8f 5c d3
       -36 -2 -80 17 46 -12 6 2 46 -21 5 -69 80 -113 92 -45
000020 80 f1 0b 07 23 80 67 e2 80 f2 80 32 f5 0e 7f 0b
       -128 -15 11 7 35 -128 103 -30 -128 -14 -128 50 -11 14 127 11
000030 47 80 6f dd 16 16 35 80 dc e6 e3 09 13 c6 ed 32
       71 -128 111 -35 22 22 53 -128 -36 -26 -29 9 19 -58 -19 50
000040 f1 d0 9a 28 7f 42 23 f0 80 e4 d3 22 26 2f 6f 96
       -15 -48 -102 40 127 66 35 -16 -128 -28 -45 34 38 47 111 -106
000050 cf db 45 cd 80 03 80 ee d6 a1 fa 25 4e 1f d7 2a
       -49 -37 69 -51 -128 3 -128 -18 -42 -95 -6 37 78 31 -41 42
000060 c6 c5 7f 7f 80 b9 7f dd ec 80 fb ef ea 25 05 80
       -58 -59 127 127 -128 -71 127 -35 -20 -128 -5 -17 -22 37 5 -128
000070 fd 80 df 80 d5 80 bb 7f bc c7 57 32 1d 21 42 aa
       -3 -128 -33 -128 -43 -128 -69 127 -68 -57 87 50 29 33 66 -86
000080 17 fe 80 d6 01 4c db fe ff d8 26 be 57 0e de 0f
       23 -2 -128 -42 1 76 -37 -2 -1 -40 38 -66 87 14 -34 15
000090 1a f0 dc f4 f0 41 30 c0 23 e9 37 b4 e9 1f bd 41
       26 -16 -36 -12 -16 65 48 -64 35 -23 55 -76 -23 31 -67 65
0000a0 3e f3 f7 03 0f 35 c1 16 2b 96 f3 e4 e9 7f 46 0f
       62 -13 -9 3 15 53 -63 22 43 -106 -13 -28 -23 127 70 15
0000b0 05 95 57 80 35 35 e4 98 79 0b 2a a6 38 33 cd 4e
       5 -107 87 -128 53 53 -28 -104 121 11 42 -90 56 51 -51 78
0000c0 2b f9 34 08 11 40 2d fb ec fc 1d cc fa 29 df e3
       43 -7 52 8 17 64 45 -5 -20 -4 29 -52 -6 41 -33 -29
0000d0 25 e4 2a dd 65 12 c1 1c
       37 -28 42 -35 101 18 -63 28

model/dynamic_conv2d_9/DynamicConv2D;model/tf.quantization.fake_quant_with_min_max_vars_per_channel_18/FakeQuantWithMinMaxVarsPerChannel i1 [24, 1, 1, 24]
000000 d2 c7 29 0c 1e 3b 80 ca 41 d8 12 a6 fd 13 f2 e9
       -46 -57 41 12 30 59 -128 -54 65 -40 18 -90 -3 19 -14 -23
000010 c2 f8 da 4a 43 df 0f 81 b6 15 38 f7 de 24 89 3f
       -62 -8 -38 74 67 -33 15 -127 -74 21 56 -9 -34 36 -119 63
000020 ce f6 7f 25 0f e1 25 56 5e 04 d7 de bd 3e 14 30
       -50 -10 127 37 15 -31 37 86 94 4 -41 -34 -67 62 20 48
000030 34 22 95 c1 ec 02 07 00 4f 71 40 dc 10 21 d7 b8
       52 34 -107 -63 -20 2 7 0 79 113 64 -36 16 33 -41 -72
000040 e3 d1 ec e8 26 7f 21 04 4b 25 d4 ab fd de 07 7f
       -29 -47 -20 -24 38 127 33 4 75 37 -44 -85 -3 -34 7 127
000050 cc 1f 09 eb 1b 99 c4 c1 05 e1 da 27 73 fc ff f1
       -52 31 9 -21 27 -103 -60 -63 5 -31 -38 39 115 -4 -1 -15
000060 24 e9 d9 2e 7f 01 02 06 f9 b8 ef 13 e7 da 2f dc
       36 -23 -39 46 127 1 2 6 -7 -72 -17 19 -25 -38 47 -36
000070 20 fe e8 02 2b e6 bb e9 d7 1c 2b 77 af f4 33 1b
       32 -2 -24 2 43 -26 -69 -23 -41 28 43 119 -81 -12 51 27
000080 81 0a 2f b5 7f 3b 71 b9 d6 19 51 0c 39 31 d7 e8
       -127 10 47 -75 127 59 113 -71 -42 25 81 12 57 49 -41 -24
000090 14 49 23 8e 73 f5 cb 2c 2f 18 02 0a 80 24 d4 b2
       20 73 35 -114 115 -11 -53 44 47 24 2 10 -128 36 -44 -78
0000a0 fe df 99 eb 40 01 f7 e5 22 cf f9 3e f4 d1 15 f2
       -2 -33 -103 -21 64 1 -9 -27 34 -49 -7 62 -12 -47 21 -14
0000b0 34 27 f3 28 f1 93 30 7f 22 ff f1 1c 30 f7 11 f8
       52 39 -13 40 -15 -109 48 127 34 -1 -15 28 48 -9 17 -8
0000c0 05 d2 ec 07 11 df 80 a5 3e 24 0d 47 f1 58 cc 77
       5 -46 -20 7 17 -33 -128 -91 62 36 13 71 -15 88 -52 119
0000d0 83 14 e1 dd e0 bf 02 de 54 ff 16 88 cf c4 0c f9
       -125 20 -31 -35 -32 -65 2 -34 84 -1 22 -120 -49 -60 12 -7
0000e0 f2 66 30 1e e6 fe e9 ed 36 e5 cb e5 80 df 0a 80
       -14 102 48 30 -26 -2 -23 -19 54 -27 -53 -27 -128 -33 10 -128
0000f0 01 9d 18 fb be 3a 27 65 de df 80 04 3a 4d 1e a4
       1 -99 24 -5 -66 58 39 101 -34 -33 -128 4 58 77 30 -92

model/.model/detector/backbone/11/convs/0/Conv/depthwise i1 [1, 3, 3, 24]
000000 f3 de 3c 01 cf df 0d f2 ca ba 61 f1 1e 68 15 da
       -13 -34 60 1 -49 -33 13 -14 -54 -70 97 -15 30 104 21 -38
000010 dc 41 dc e9 96 7f 02 91 e0 8e 40 31 f6 a7 6d fa
       -36 65 -36 -23 -106 127 2 -111 -32 -114 64 49 -10 -89 109 -6
000020 0d 80 65 ec 2f 16 8c dd ac 55 80 e9 b9 51 0f 80
       13 -128 101 -20 47 22 -116 -35 -84 85 -128 -23 -71 81 15 -128
000030 c2 b0 84 20 19 c1 fe 06 1a cb f3 fa e8 f7 fb bd
       -62 -80 -124 32 25 -63 -2 6 26 -53 -13 -6 -24 -9 -5 -67
000040 4a 01 c3 c2 80 9b 05 d9 fe fc 44 0c 80 ca 7f ef
       74 1 -61 -62 -128 -101 5 -39 -2 -4 68 12 -128 -54 127 -17
000050 11 fd 7a f3 04 60 f3 e1 80 3b cf 16 c9 41 ff 0f
       17 -3 122 -13 4 96 -13 -31 -128 59 -49 22 -55 65 -1 15
000060 80 7f 5b 7f bc 7f 34 80 de 04 7f 11 7f 7f 80 8c
       -128 127 91 127 -68 127 52 -128 -34 4 127 17 127 127 -128 -116
000070 bf bb c4 80 f0 fc 80 b4 ca e5 be 1a 41 f9 19 f1
       -65 -69 -60 -128 -16 -4 -128 -76 -54 -27 -66 26 65 -7 25 -15
000080 e4 23 cd 11 ef d5 df 9a 03 80 7f cb 9b ca f1 cd
       -28 35 -51 17 -17 -43 -33 -102 3 -128 127 -53 -101 -54 -15 -51
000090 02 f6 4c 18 f1 f3 ff 02 e2 25 e4 0d f8 ec 07 06
       2 -10 76 24 -15 -13 -1 2 -30 37 -28 13 -8 -20 7 6
0000a0 e0 f3 80 f2 ee 42 04 19 a9 fc 7f 15 e5 1f a8 fd
       -32 -13 -128 -14 -18 66 4 25 -87 -4 127 21 -27 31 -88 -3
0000b0 80 22 a6 7f fa f7 e6 94 dd c0 32 e5 0a 26 d7 08
       -128 34 -90 127 -6 -9 -26 -108 -35 -64 50 -27 10 38 -41 8
0000c0 fd 07 08 0a 20 f5 0d 04 c4 1a b3 27 06 0a fe 80
       -3 7 8 10 32 -11 13 4 -60 26 -77 39 6 10 -2 -128
0000d0 f5 fd 63 f6 c5 5b f6 11
       -11 -3 99 -10 -59 91 -10 17

model/dynamic_conv2d_10/DynamicConv2D;model/tf.quantization.fake_quant_with_min_max_vars_per_channel_20/FakeQuantWithMinMaxVarsPerChannel i1 [24, 1, 1, 24]
000000 4c 17 25 ee ce 07 25 c0 ee 06 d6 c8 2f fa 02 ef
       76 23 37 -18 -50 7 37 -64 -18 6 -42 -56 47 -6 2 -17
000010 f1 2c ec bf 0a c6 80 d3 be 07 39 f1 cf 83 18 47
       -15 44 -20 -65 10 -58 -128 -45 -66 7 57 -15 -49 -125 24 71
000020 0b e4 b9 0f dc 0f 33 1a c9 bd e1 54 ce fc e9 80
       11 -28 -71 15 -36 15 51 26 -55 -67 -31 84 -50 -4 -23 -128
000030 2d 0c d3 0d 2b 60 5f f1 df 10 d1 e1 ad 34 e8 b1
       45 12 -45 13 43 96 95 -15 -33 16 -47 -31 -83 52 -24 -79
000040 80 bc e0 d1 03 bb ed b3 1e 07 4c 8b 85 18 fa 15
       -128 -68 -32 -47 3 -69 -19 -77 30 7 76 -117 -123 24 -6 21
000050 ca 22 f7 7f 1c 0c 24 55 e4 07 0b fa 4a 42 de 20
       -54 34 -9 127 28 12 36 85 -28 7 11 -6 74 66 -34 32
000060 0e 5f b9 23 2e 02 3c 14 d7 e5 ee 3e eb 40 1c 12
       14 95 -71 35 46 2 60 20 -41 -27 -18 62 -21 64 28 18
000070 03 d2 b7 02 7f cc 9f 20 12 df f6 da be 15 18 3c
       3 -46 -73 2 127 -52 -97 32 18 -33 -10 -38 -66 21 24 60
000080 0d 14 0d 59 44 cd 7f fc 4e 43 30 f9 e0 fd fa ee
       13 20 13 89 68 -51 127 -4 78 67 48 -7 -32 -3 -6 -18
000090 7a cd ef 1b ee 1a a6 4c 85 02 b0 16 31 03 4f ce
       122 -51 -17 27 -18 26 -90 76 -123 2 -80 22 49 3 79 -50
0000a0 80 aa 13 0d 0c e7 b9 fb 0b e1 fa 2f 14 3a 0c 71
       -128 -86 19 13 12 -25 -71 -5 11 -31 -6 47 20 58 12 113
0000b0 da 4e e3 34 80 13 1d 27 d8 03 ff 1d d8 d6 f0 02
       -38 78 -29 52 -128 19 29 39 -40 3 -1 29 -40 -42 -16 2
0000c0 ef fb fe 2f c7 0c 28 1b fa 11 02 7f 12 d2 09 cc
       -17 -5 -2 47 -57 12 40 27 -6 17 2 127 18 -46 9 -52
0000d0 fd 37 e8 ef fc fa 41 3a c7 0a ee b9 fe b1 1b 7f
       -3 55 -24 -17 -4 -6 65 58 -57 10 -18 -71 -2 -79 27 127
0000e0 f8 df a2 39 38 d2 eb a0 a9 32 0f 2b ca 0b 18 f0
       -8 -33 -94 57 56 -46 -21 -96 -87 50 15 43 -54 11 24 -16
0000f0 21 cd a1 fc ec f6 fd d9 f1 e3 9c 62 d8 a0 21 c5
       33 -51 -95 -4 -20 -10 -3 -39 -15 -29 -100 98 -40 -96 33 -59

model/.model/detector/backbone/12/convs/0/Conv/depthwise i1 [1, 3, 3, 24]
000000 b0 ec 2f 25 07 e3 13 3b ac e3 f9 05 2d f9 07 e5
       -80 -20 47 37 7 -29 19 59 -84 -29 -7 5 45 -7 7 -27
000010 6f 14 d9 17 17 33 7f 14 80 df 1e 27 27 d7 68 60
       111 20 -39 23 23 51 127 20 -128 -33 30 39 39 -41 104 96
000020 21 45 28 8f 7f 5a 10 c1 61 7f 0a 0b db 51 37 19
       33 69 40 -113 127 90 16 -63 97 127 10 11 -37 81 55 25
000030 cf a1 13 0e 15 fa 40 fc 74 1b f0 8f e9 2a f4 b4
       -49 -95 19 14 21 -6 64 -4 116 27 -16 -113 -23 42 -12 -76
000040 43 5e 53 96 f5 69 cd ed 0d e4 11 38 11 f5 7c 3a
       67 94 83 -106 -11 105 -51 -19 13 -28 17 56 17 -11 124 58
000050 95 02 80 cc f8 e0 1e f2 42 e5 f1 0d d5 22 6c 7f
       -107 2 -128 -52 -8 -32 30 -14 66 -27 -15 13 -43 34 108 127
000060 a9 12 80 7f 7f 80 4a 13 31 7f ee df 00 5e 7f 80
       -87 18 -128 127 127 -128 74 19 49 127 -18 -33 0 94 127 -128
000070 2c 1d 4e 80 80 80 a3 3e d9 80 d5 cf 16 eb b6 80
       44 29 78 -128 -128 -128 -93 62 -39 -128 -43 -49 22 -21 -74 -128
000080 00 31 51 f2 b0 d9 d9 bd ae 6c 7f dc d4 4e ac da
       0 49 81 -14 -80 -39 -39 -67 -82 108 127 -36 -44 78 -84 -38
000090 4f 0f 1d d7 f9 08 4a dd d1 25 f8 ae d4 b2 f9 15
       79 15 29 -41 -7 8 74 -35 -47 37 -8 -82 -44 -78 -7 21
0000a0 f0 48 0f e7 ef 30 21 12 4d 5e ea d5 f5 fc 80 d9
       -16 72 15 -25 -17 48 33 18 77 94 -22 -43 -11 -4 -128 -39
0000b0 d5 10 30 7f d9 80 d2 09 80 41 26 36 f0 1f d9 f3
       -43 16 48 127 -39 -128 -46 9 -128 65 38 54 -16 31 -39 -13
0000c0 27 1c f3 f3 45 f8 d9 fd 80 20 43 43 c8 bc f1 9e
       39 28 -13 -13 69 -8 -39 -3 -128 32 67 67 -56 -68 -15 -98
0000d0 cf 47 46 49 1c 13 17 1c
       -49 71 70 73 28 19 23 28

model/dynamic_conv2d_11/DynamicConv2D;model/tf.quantization.fake_quant_with_min_max_vars_per_channel_22/FakeQuantWithMinMaxVarsPerChannel i1 [24, 1, 1, 24]
000000 1d 27 fc ef 07 fa c2 1d 09 1d e8 07 cb 7f 22 0c
       29 39 -4 -17 7 -6 -62 29 9 29 -24 7 -53 127 34 12
000010 27 e2 f9 27 00 c1 e0 23 0d f5 b5 c3 f2 d9 18 0f
       39 -30 -7 39 0 -63 -32 35 13 -11 -75 -61 -14 -39 24 15
000020 48 28 80 dd e2 0e fa f6 04 bc 5d aa 2b f9 31 f5
       72 40 -128 -35 -30 14 -6 -10 4 -68 93 -86 43 -7 49 -11
000030 32 2d 7f 25 ff fc 34 16 55 fe fc eb de 05 1b 08
       50 45 127 37 -1 -4 52 22 85 -2 -4 -21 -34 5 27 8
000040 fe fd 1b e0 5c d6 d7 15 19 1b ba cb 94 1b 8e 3a
       -2 -3 27 -32 92 -42 -41 21 25 27 -70 -53 -108 27 -114 58
000050 43 14 b5 b7 3a e9 80 30 ba 2d 0c 1a 43 05 bd 1c
       67 20 -75 -73 58 -23 -128 48 -70 45 12 26 67 5 -67 28
000060 ea df f0 1a c7 7f c8 05 f3 16 13 f2 eb 2c c6 54
       -22 -33 -16 26 -57 127 -56 5 -13 22 19 -14 -21 44 -58 84
000070 2b 04 0e 0e f9 bc f4 eb f5 00 3b d7 c8 7f 69 e1
       43 4 14 14 -7 -68 -12 -21 -11 0 59 -41 -56 127 105 -31
000080 e6 bc 0c 27 37 eb a2 f9 10 52 fa b2 02 14 e6 60
       -26 -68 12 39 55 -21 -94 -7 16 82 -6 -78 2 20 -26 96
000090 d4 11 23 f8 da 9e 14 e4 fa 0b 04 59 e9 7f cd e9
       -44 17 35 -8 -38 -98 20 -28 -6 11 4 89 -23 127 -51 -23
0000a0 db 71 dd 45 0f 08 36 20 fa 32 10 14 20 0e d9 1a
       -37 113 -35 69 15 8 54 32 -6 50 16 20 32 14 -39 26
0000b0 b2 80 62 fb f4 94 dd 52 3e 12 27 ab 02 d0 af 04
       -78 -128 98 -5 -12 -108 -35 82 62 18 39 -85 2 -48 -81 4
0000c0 e5 2a 2c 69 d5 1d 34 e3 7f fd 24 ea 14 fb db 19
       -27 42 44 105 -43 29 52 -29 127 -3 36 -22 20 -5 -37 25
0000d0 3e 18 3a 1b 2d 32 db 3e c0 28 17 80 c8 26 36 f3
       62 24 58 27 45 50 -37 62 -64 40 23 -128 -56 38 54 -13
0000e0 ce d5 f4 2f 4f de f7 f1 09 2d 48 b0 5c 29 1c 1e
       -50 -43 -12 47 79 -34 -9 -15 9 45 72 -80 92 41 28 30
0000f0 e4 cc e4 3f e2 02 d5 bf f6 e4 e7 7f 39 45 0d 2b
       -28 -52 -28 63 -30 2 -43 -65 -10 -28 -25 127 57 69 13 43

model/.model/detector/backbone/13/convs/0/Conv/depthwise i1 [1, 3, 3, 24]
000000 7f 42 ff 45 f9 54 72 e5 ab 35 c0 f4 aa df 80 09
       127 66 -1 69 -7 84 114 -27 -85 53 -64 -12 -86 -33 -128 9
000010 f7 15 bd 14 00 d6 18 80 04 e6 2f b7 88 1c 49 23
       -9 21 -67 20 0 -42 24 -128 4 -26 47 -73 -120 28 73 35
000020 bf fb 99 cb 80 d4 98 ca 3e 16 a6 69 ec 02 47 81
       -65 -5 -103 -53 -128 -44 -104 -54 62 22 -90 105 -20 2 71 -127
000030 07 dd ec f0 1f 82 8d 7f ba 04 5d bd fc b7 2c c8
       7 -35 -20 -16 31 -126 -115 127 -70 4 93 -67 -4 -73 44 -56
000040 3a 06 ce 25 f7 13 40 f5 62 39 ac 42 ba 71 7f ee
       58 6 -50 37 -9 19 64 -11 98 57 -84 66 -70 113 127 -18
000050 84 7f dc 09 84 ba 86 04 5c 22 56 eb 1b 0a d7 0d
       -124 127 -36 9 -124 -70 -122 4 92 34 86 -21 27 10 -41 13
000060 11 7f 80 e8 80 b2 fb 5c e9 b8 f9 28 8d 80 42 7f
       17 127 -128 -24 -128 -78 -5 92 -23 -72 -7 40 -115 -128 66 127
000070 34 4e 31 7f 7f 7f 80 50 a8 33 59 80 37 80 4d 40
       52 78 49 127 127 127 -128 80 -88 51 89 -128 55 -128 77 64
000080 f8 09 7f ff 42 8f 4b 28 7f f9 ef 12 f1 0a 22 3e
       -8 9 127 -1 66 -113 75 40 127 -7 -17 18 -15 10 34 62
000090 5c 1f bf 3a df 4c a5 af c3 54 06 7f e8 d8 f9 49
       92 31 -65 58 -33 76 -91 -81 -61 84 6 127 -24 -40 -7 73
0000a0 36 ed 7f b5 07 ed e1 f4 4c 1f b8 d1 6e 01 da 1a
       54 -19 127 -75 7 -19 -31 -12 76 31 -72 -47 110 1 -38 26
0000b0 7f f7 30 36 08 a9 68 5b a8 80 4a b0 34 11 e8 a1
       127 -9 48 54 8 -87 104 91 -88 -128 74 -80 52 17 -24 -95
0000c0 ff 2a 5c bd 45 24 64 30 3c ea fa 1d 3b ea 2b 0a
       -1 42 92 -67 69 36 100 48 60 -22 -6 29 59 -22 43 10
0000d0 01 90 e7 d1 1b f0 17 eb
       1 -112 -25 -47 27 -16 23 -21

model/dynamic_conv2d_12/DynamicConv2D;model/tf.quantization.fake_quant_with_min_max_vars_per_channel_24/FakeQuantWithMinMaxVarsPerChannel i1 [24, 1, 1, 24]
000000 53 d2 5d f3 12 fd 43 07 27 ff 1d 2a 10 0e f9 dc
       83 -46 93 -13 18 -3 67 7 39 -1 29 42 16 14 -7 -36
000010 fb 7f 49 2b be 1c 60 4e 6b b6 53 df 7f d3 cf 01
       -5 127 73 43 -66 28 96 78 107 -74 83 -33 127 -45 -49 1
000020 22 36 30 c0 ee 6f 3b fb e8 bf ce 9b 17 11 52 12
       34 54 48 -64 -18 111 59 -5 -24 -65 -50 -101 23 17 82 18
000030 d7 c4 7f 1c e4 18 eb 12 07 44 fc e6 e5 19 f1 f2
       -41 -60 127 28 -28 24 -21 18 7 68 -4 -26 -27 25 -15 -14
000040 3e 31 f3 c9 ec e3 fc dc 38 eb a8 e0 1c 11 20 c4
       62 49 -13 -55 -20 -29 -4 -36 56 -21 -88 -32 28 17 32 -60
000050 dc e9 80 08 61 11 7e 01 37 0c 0c eb 5b ec 49 03
       -36 -23 -128 8 97 17 126 1 55 12 12 -21 91 -20 73 3
000060 51 d0 09 80 5f de 08 fc c5 d4 39 f3 32 cf 33 f2
       81 -48 9 -128 95 -34 8 -4 -59 -44 57 -13 50 -49 51 -14
000070 f1 1f 29 ee ea f0 c7 0f 23 da 20 16 29 4a 4f cf
       -15 31 41 -18 -22 -16 -57 15 35 -38 32 22 41 74 79 -49
000080 08 80 0f bc e7 0b 2e f6 fa f6 d4 d8 36 12 c3 dc
       8 -128 15 -68 -25 11 46 -10 -6 -10 -44 -40 54 18 -61 -36
000090 22 80 ed 56 2a e5 0a 4e 02 42 af 3c d5 17 09 39
       34 -128 -19 86 42 -27 10 78 2 66 -81 60 -43 23 9 57
0000a0 ee cc a7 33 0a 4d ba 1b 2b eb 7d ff 32 16 f8 b5
       -18 -52 -89 51 10 77 -70 27 43 -21 125 -1 50 22 -8 -75
0000b0 fe 45 e4 c2 fc 0d b8 0c 10 16 fc 80 13 e4 5b d7
       -2 69 -28 -62 -4 13 -72 12 16 22 -4 -128 19 -28 91 -41
0000c0 76 1c dd 3e 1c 3f 7f d8 5c de a8 23 72 20 f6 25
       118 28 -35 62 28 63 127 -40 92 -34 -88 35 114 32 -10 37
0000d0 ee 89 d9 cf ab ba 42 eb 33 d5 fc 24 1a 17 d8 f5
       -18 -119 -39 -49 -85 -70 66 -21 51 -43 -4 36 26 23 -40 -11
0000e0 f4 7f d6 f6 d2 10 b1 e3 f3 02 d8 db 21 c3 53 da
       -12 127 -42 -10 -46 16 -79 -29 -13 2 -40 -37 33 -61 83 -38
0000f0 40 0a 08 4d 1a 46 16 e1 e4 95 eb 5c 0d 0f 15 80
       64 10 8 77 26 70 22 -31 -28 -107 -21 92 13 15 21 -128

model/.model/detector/backbone/14/convs/0/Conv/depthwise i1 [1, 3, 3, 24]
000000 e9 80 ae 23 2f a7 2d fc f3 01 15 0f fb 20 07 2b
       -23 -128 -82 35 47 -89 45 -4 -13 1 21 15 -5 32 7 43
000010 ed 0f 0b 7f 10 ab 73 ce f1 12 64 7f 37 80 3a dc
       -19 15 11 127 16 -85 115 -50 -15 18 100 127 55 -128 58 -36
000020 c6 c9 2d 00 fb da ca 11 b1 b9 e6 1d 51 db 6b e5
       -58 -55 45 0 -5 -38 -54 17 -79 -71 -26 29 81 -37 107 -27
000030 fc 59 7d 46 fb b4 14 f8 d6 2a 21 2d 04 a1 0c fd
       -4 89 125 70 -5 -76 20 -8 -42 42 33 45 4 -95 12 -3
000040 e5 c9 d0 0a 24 1a 37 fd da 0b 80 f6 0c 1d 7f 3f
       -27 -55 -48 10 36 26 55 -3 -38 11 -128 -10 12 29 127 63
000050 f9 0e f3 80 f5 26 ff 52 21 2a 4c 5e 12 80 5d 80
       -7 14 -13 -128 -11 38 -1 82 33 42 76 94 18 -128 93 -128
000060 7f 43 e3 aa 80 24 45 7f 7f 78 80 4f 80 85 80 7f
       127 67 -29 -86 -128 36 69 127 127 120 -128 79 -128 -123 -128 127
000070 7f 1c 05 0c 7f a9 84 85 12 4c 57 ec 07 e4 a3 e8
       127 28 5 12 127 -87 -124 -123 18 76 87 -20 7 -28 -93 -24
000080 27 7f 05 67 09 80 21 05 c9 80 80 f7 20 e6 ee fb
       39 127 5 103 9 -128 33 5 -55 -128 -128 -9 32 -26 -18 -5
000090 f4 27 dd 07 fc 40 42 dc a8 01 fa c7 f0 ed 1d 03
       -12 39 -35 7 -4 64 66 -36 -88 1 -6 -57 -16 -19 29 3
0000a0 2f 08 25 3f 00 4a e4 d5 14 f8 e0 c2 8d 7b e0 a9
       47 8 37 63 0 74 -28 -43 20 -8 -32 -62 -115 123 -32 -87
0000b0 0e 25 f3 6f 03 b5 12 d3 1e 50 2f 9e 14 d3 80 2b
       14 37 -13 111 3 -75 18 -45 30 80 47 -98 20 -45 -128 43
0000c0 1c 04 ee d5 1c 3e b5 d9 58 ee fa 12 09 9a 10 e4
       28 4 -18 -43 28 62 -75 -39 88 -18 -6 18 9 -102 16 -28
0000d0 f1 03 c6 db 02 d3 eb e7
       -15 3 -58 -37 2 -45 -21 -25

model/dynamic_conv2d_13/DynamicConv2D;model/tf.quantization.fake_quant_with_min_max_vars_per_channel_26/FakeQuantWithMinMaxVarsPerChannel i1 [24, 1, 1, 24]
000000 ae 1c ef 25 1d 25 03 88 06 50 80 19 1f e9 ea 42
       -82 28 -17 37 29 37 3 -120 6 80 -128 25 31 -23 -22 66
000010 e5 b1 fa dc ca d3 4e ef 62 8b 80 ab fe e9 fb 21
       -27 -79 -6 -36 -54 -45 78 -17 98 -117 -128 -85 -2 -23 -5 33
000020 07 09 bd 8c 22 f4 04 11 37 e1 2b cc f7 36 20 33
       7 9 -67 -116 34 -12 4 17 55 -31 43 -52 -9 54 32 51
000030 05 22 aa 5c 42 47 b5 d9 4e c2 d3 df 22 f4 d0 06
       5 34 -86 92 66 71 -75 -39 78 -62 -45 -33 34 -12 -48 6
000040 80 43 fd ae fc e0 4f dd 5d 25 af 50 32 28 3f 73
       -128 67 -3 -82 -4 -32 79 -35 93 37 -81 80 50 40 63 115
000050 7f da e4 a7 df 04 10 c7 f3 e8 e8 3f 04 db 19 30
       127 -38 -28 -89 -33 4 16 -57 -13 -24 -24 63 4 -37 25 48
000060 3e 2c 15 e7 7f dc e4 1d f2 e9 f3 c4 ec 15 3c 9c
       62 44 21 -25 127 -36 -28 29 -14 -23 -13 -60 -20 21 60 -100
000070 e4 c4 53 e7 c5 e4 0a 26 a3 5a b8 e2 c0 b3 10 fd
       -28 -60 83 -25 -59 -28 10 38 -93 90 -72 -30 -64 -77 16 -3
000080 40 22 cf 0e a1 ce f8 1f 0b 13 e2 fb e3 0d 2d 80
       64 34 -49 14 -95 -50 -8 31 11 19 -30 -5 -29 13 45 -128
000090 5b 51 0e aa 7a ac 90 dd 19 0e 2d 54 ba 43 e8 28
       91 81 14 -86 122 -84 -112 -35 25 14 45 84 -70 67 -24 40
0000a0 f8 7f 3d db c4 b0 4c d8 11 fd 09 c5 f4 0b 0c 80
       -8 127 61 -37 -60 -80 76 -40 17 -3 9 -59 -12 11 12 -128
0000b0 0a ea ea f2 ee 09 3e fc 19 e2 ed e5 19 24 f6 0f
       10 -22 -22 -14 -18 9 62 -4 25 -30 -19 -27 25 36 -10 15
0000c0 86 2b d2 42 60 1a c2 0b 80 de 20 c2 95 3e 12 a7
       -122 43 -46 66 96 26 -62 11 -128 -34 32 -62 -107 62 18 -89
0000d0 e2 d8 41 25 f0 25 cd f6 e2 d7 99 33 00 74 15 80
       -30 -40 65 37 -16 37 -51 -10 -30 -41 -103 51 0 116 21 -128
0000e0 02 f3 fe e5 ad ce 13 5b 3c 0b 35 7a f8 14 f9 da
       2 -13 -2 -27 -83 -50 19 91 60 11 53 122 -8 20 -7 -38
0000f0 20 e3 cf 0c 30 ef 0b 0f 15 ea 7f 10 16 0a 0a d4
       32 -29 -49 12 48 -17 11 15 21 -22 127 16 22 10 10 -44

model/.model/detector/backbone/15/convs/0/Conv/depthwise i1 [1, 3, 3, 24]
000000 2f b8 e8 cf eb 63 1f f2 7f f7 d5 19 54 09 48 df
       47 -72 -24 -49 -21 99 31 -14 127 -9 -43 25 84 9 72 -33
000010 d5 1f 04 fd 23 be 16 ca 29 5e 80 27 80 0d 3a e6
       -43 31 4 -3 35 -66 22 -54 41 94 -128 39 -128 13 58 -26
000020 65 5e f1 eb 20 1d ad e6 80 b8 0c f3 80 80 05 80
       101 94 -15 -21 32 29 -83 -26 -128 -72 12 -13 -128 -128 5 -128
000030 ed ee 98 28 c3 80 f5 f7 40 19 f1 b8 bd 1e f7 ea
       -19 -18 -104 40 -61 -128 -11 -9 64 25 -15 -72 -67 30 -9 -22
000040 0b a8 1e fa ab f5 1a 8f 0b af 01 36 20 3e da 7f
       11 -88 30 -6 -85 -11 26 -113 11 -81 1 54 32 62 -38 127
000050 48 f6 e8 2a 34 0d 7f cb b1 7f e9 23 22 55 17 2a
       72 -10 -24 42 52 13 127 -53 -79 127 -23 35 34 85 23 42
000060 7f 7f c0 6e b5 fb 7f c0 f2 80 7f 7f 80 80 d1 80
       127 127 -64 110 -75 -5 127 -64 -14 -128 127 127 -128 -128 -47 -128
000070 7a ff 80 cf f9 19 80 4e 01 ce aa 7f 9f a6 0e aa
       122 -1 -128 -49 -7 25 -128 78 1 -50 -86 127 -97 -90 14 -86
000080 ee dd cd bb 94 f4 df e5 58 9e 1c 7b cf bb f1 cb
       -18 -35 -51 -69 -108 -12 -33 -27 88 -98 28 123 -49 -69 -15 -53
000090 b4 ec 0c 22 0b d2 d9 4a 4b c8 e0 1d 2f 0b 06 b8
       -76 -20 12 34 11 -46 -39 74 75 -56 -32 29 47 11 6 -72
0000a0 97 7d f5 2e fc 15 29 26 dc 09 09 9f d9 ac ee 20
       -105 125 -11 46 -4 21 41 38 -36 9 9 -97 -39 -84 -18 32
0000b0 32 e5 e1 45 f8 da 35 90 53 3a 90 7f 00 17 ed 39
       50 -27 -31 69 -8 -38 53 -112 83 58 -112 127 0 23 -19 57
0000c0 ef b1 fc d2 02 07 1f cb e5 b4 db 2a f5 d6 e3 95
       -17 -79 -4 -46 2 7 31 -53 -27 -76 -37 42 -11 -42 -29 -107
0000d0 2d 1b 1f 55 1b a7 ee 19
       45 27 31 85 27 -89 -18 25
